data.pth (torch, 6231 bytes, 6 tensors)

l1.weight f4 [8, 79]
0.84249103 0.62676036 0.38751978 0.5750474 -0.14232814 0.67064446 0.5601326 0.11063452
-0.78107697 -0.23609251 0.49093032 -0.14313608 -0.19733496 -0.23665479 -0.1545346 -0.023760064
-0.14862934 0.6788103 0.6538784 -0.15920581 -0.33269382 -0.3059777 -0.058097564 -0.2020256
-0.22414361 0.08085282 -0.21046096 0.38363045 -0.30398434 0.53465986 -0.7781967 0.10527422
0.70544285 0.48525777 0.68398565 0.7777505 0.5017139 0.38172528 0.4529269 -0.065969825
-0.43139437 0.36688817 -0.37512657 0.47516954 -0.5706989 -0.3270946 0.49420065 0.31573886
0.24031381 0.69949317 -0.14308134 -0.4607041 -0.09851449 -0.49808854 0.7281615 -0.08488657
0.054834988 -0.41810402 -0.5270665 -0.4798939 -0.196012 -0.27535027 0.46418208 -0.3016515
0.32572144 1.1599685 0.49512175 -0.043480057 0.2346076 0.15975879 -0.49170816 -0.36917403
-0.20838259 -0.28365022 -0.19398254 -0.43575603 -0.1744471 -0.13291802 0.34056315 -0.18529038
0.5124246 0.24867378 0.0038168083 -0.07238141 -0.15715724 0.04315487 -0.3345915 0.12631819
0.49207 0.2199202 0.51125807 -0.15091915 -0.07342067 -0.20573619 -0.030483715 -0.0592217
0.09789351 -0.009504415 0.82531965 0.70931727 0.7575557 -0.4102172 0.36797443 -0.37492597
-0.39824376 0.32138494 0.5028031 0.038814727 -0.16300315 0.27838698 -0.007540796 -0.27985048
-0.21581666 -0.24902208 -0.3055918 0.24547622 0.21498427 -0.0298103 -0.2648776 0.463479
0.6803471 0.3688536 0.45346552 0.05164926 0.71963024 -0.15644372 0.2725726 0.59048486
-0.02610036 0.67047346 -0.03848314 0.4105208 0.49265468 0.018974395 0.31350976 -0.11672865
-0.23167916 0.16756316 0.41550586 0.60223526 -0.12231522 0.49342817 0.81654567 0.61978906
-0.6600149 -0.090768784 -0.0402947 0.06250449 -0.36852834 0.5482021 -0.20740983 -0.18767598
0.40241793 0.5337857 0.3620814 -0.233349 0.37290782 0.17200689 0.1272612 0.32641906
-0.52413976 0.40972453 0.521488 -0.43036526 -0.16793053 -0.27897957 1.0153993 0.13015987
-0.48970565 -0.2955171 0.18772435 -0.07123521 -0.18619435 0.4529876 0.3142272 -0.49097225
-0.30870777 0.08406774 0.113376774 0.047299094 -0.40954635 0.4141269 0.58584845 0.5656434
0.2633113 0.30622667 -0.51932466 -0.42217726 1.1932564 0.558523 -0.4832876 -0.02038528
-0.63079345 -0.53382885 -0.021618057 -0.21412754 0.08579372 -0.026498035 0.64226794 0.38528645
0.42760623 0.20971568 0.7752315 -0.14071831 0.29090545 -0.51245475 0.3622044 1.0628437
-0.09499784 0.48883277 -0.31814513 0.3969718 0.48299554 -0.28788483 0.22092462 0.6268875
0.7526641 0.68728465 -0.20089032 0.45770487 0.30263513 -0.18227108 0.43287203 -0.21448791
0.012019829 0.61424637 0.07996714 0.5240693 0.40664977 0.38647434 -0.11135616 0.6394175
-0.053246792 0.46530622 -0.4303413 -0.29602647 0.28509763 0.020844074 0.046099402 0.3784533
0.004535127 0.43947867 -0.34503928 0.29403254 0.43935925 -0.18194361 -0.12688462 0.52515787
0.3760811 0.5683226 0.38726464 0.42640847 -0.12464918 0.24439089 0.5183055 0.12817025
00000000: 7ead 573f 5e73 203f fe68 c63e 4e36 133f
00000010: 78be 11be 5baf 2b3f da64 0f3f 5a94 e23d
00000020: a9f4 47bf 3cc2 71be 385b fb3e 4492 12be
00000030: 2d12 4abe a255 72be 513e 1ebe 77a4 c2bc
00000040: 4a32 18be 83c6 2d3f 9364 273f d906 23be
00000050: d856 aabe 1ca9 9cbe b6f7 6dbd cddf 4ebe
00000060: e785 65be 2a96 a53d 1483 57be 366b c43e
00000070: d6a3 9bbe 78df 083f e637 47bf 039a d73d
00000080: e797 343f b573 f83e af19 2f3f a81a 473f
00000090: 5270 003f 7f71 c33e 09e6 e73e 301b 87bd
000000a0: b9df dcbe c4d8 bb3e 9710 c0be 6c49 f33e
000000b0: 5319 12bf f278 a7be de07 fd3e 86a8 a13e
000000c0: d314 763e fc11 333f ea83 12be 68e1 ebbe
000000d0: f7c1 c9bd 7605 ffbe cb68 3a3f 03d9 adbd
000000e0: a79a 603d bb11 d6be d5ed 06bf a7b4 f5be
000000f0: 5fb7 48be b6fa 8cbe 46a9 ed3e 1172 9abe
00000100: f6c4 a63e d979 943f 9980 fd3e 2518 32bd
00000110: fa3c 703e cf97 233e 2cc1 fbbe 6104 bdbe
00000120: 3f62 55be 9a3a 91be 5ca3 46be 6a1b dfbe
00000130: 43a2 32be a91b 08be 4b5e ae3e c3bc 3dbe
00000140: 422e 033f 57a4 7e3e 6b23 7a3b b43c 94bd
00000150: d4ed 20be 29c3 303d 944f abbe 8e59 013e
00000160: 99f0 fb3e c332 613e cfe1 023f 8d8a 1abe
00000170: 945d 96bd 82ac 52be fcb8 f9bc 7492 72bd
00000180: 647c c83d 68b8 1bbc 2648 533f d195 353f
00000190: 2cef 413f fd07 d2be 2567 bc3e 4cf6 bfbe
000001a0: 9be6 cbbe 918c a43e b4b7 003f 31fc 1e3d
000001b0: 4cea 26be bd88 8e3e c818 f7bb 9048 8fbe
000001c0: 0bff 5cbe a5ff 7ebe 8776 9cbe 1e5e 7b3e
000001d0: d624 5c3e bb34 f4bc 099e 87be 1f4d ed3e
000001e0: 3a2b 2e3f 61da bc3e a22c e83e 2d8e 533d
000001f0: b039 383f c832 20be a38e 8b3e 042a 173f
00000200: 6cd0 d5bc 26a4 2b3f 7fa0 1dbd c82f d23e
00000210: 3c3d fc3e 3170 9b3c 5a84 a03e 6e0f efbd
00000220: 4d3d 6dbe ad95 2b3e 2fbd d43e 172c 1a3f
00000230: 6780 fabd 9ea2 fc3e 2309 513f 7faa 1e3f
00000240: bdf6 28bf fce4 b9bd 0e0c 25bd 5b02 803d
00000250: bfaf bcbe f956 0c3f 3e63 54be 222e 40be
00000260: b909 ce3e 2ea6 083f bc62 b93e 0af3 6ebe
00000270: c6ed be3e 9322 303e c350 023e 6620 a73e
00000280: 062e 06bf 6ac7 d13e 3d80 053f d658 dcbe
00000290: fbf5 2bbe 69d6 8ebe 9bf8 813f a148 053e
000002a0: b3ba fabe 044e 97be d03a 403e c4e3 91bd
000002b0: bba9 3ebe feed e73e 63e2 a03e b760 fbbe
000002c0: f20e 9ebe b52b ac3d 1532 e83d b2bc 413d
000002d0: 0fb0 d1be 7108 d43e 2afa 153f 02ce 103f
000002e0: bdd0 863e bec9 9c3e 76f2 04bf 9e27 d8be
000002f0: a0bc 983f 5dfb 0e3f 7971 f7be 08ff a6bc
00000300: ae7b 21bf 02a9 08bf 5a18 b1bc 4044 5bbe
00000310: 9eb4 af3d 6812 d9bc ac6b 243f 4444 c53e
00000320: 34ef da3e b5bf 563e 9275 463f 7618 10be
00000330: 8ff1 943e 3c30 03bf db72 b93e 430b 883f
00000340: 3a8e c2bd 4a48 fa3e ebe3 a2be e33f cb3e
00000350: 314b f73e a465 93be 103a 623e b37b 203f
00000360: 98ae 403f e3f1 2f3f 31b6 4dbe 4b58 ea3e
00000370: fef2 9a3e 45a5 3abe 67a1 dd3e b8a2 5bbe
00000380: d1ee 443c 403f 1d3f d0c5 a33d 6829 063f
00000390: 6634 d03e f7df c53e b30e e4bd deb0 233f
000003a0: 4f19 5abd 9e3c ee3e b255 dcbe c890 97be
000003b0: 51f8 913e 31c1 aa3c bad2 3c3d a2c4 c13e
000003c0: 679b 943b 5903 e13e fda8 b0be 6f8b 963e
000003d0: b2f3 e03e 6d4f 3abe 0bee 01be bf70 063f
000003e0: b48d c03e 977d 113f 8d47 c63e 3652 da3e
000003f0: 1248 ffbd 9b41 7a3e abaf 043f 103f 033e

l1.bias f4 [8]
0.75139433 0.48989582 0.76360416 0.17128053 0.6341709 0.7939498 0.61664885 0.47707376
00000000: 615b 403f a0d3 fa3e 907b 433f 2a64 2f3e
00000010: 0659 223f 4b40 4b3f b3dc 1d3f 0343 f43e

l2.weight f4 [8, 8]
-0.7170846 0.5243766 0.571637 0.848891 -0.5012016 -0.39225632 1.1447748 0.4872159
0.24072464 1.2344596 -0.68525964 1.3969691 -0.298306 0.059988655 1.0972083 1.496979
0.22329888 0.020511165 0.43076864 -0.94775265 -1.6109284 0.30064386 0.2146853 0.9149485
0.26668152 -0.4769871 0.6552219 0.23441425 -1.4256903 1.2417506 -0.19698927 -1.0030453
-1.0760617 -0.31786054 1.0678914 0.5418106 -0.30799884 0.7455431 0.07927354 0.31028247
2.0207927 -0.6475686 0.13838936 -0.53804487 -0.12165647 0.79685324 0.46766356 0.4104589
-0.69738925 1.2948029 1.1052042 -0.8470316 0.9129774 0.33541176 0.79726404 -0.8242484
-0.08888164 -0.21384788 0.13026509 -0.06717774 -0.05903527 -0.2476864 0.013576478 -0.2530575
00000000: db92 37bf 8b3d 063f cd56 123f ec50 593f
00000010: c04e 00bf d2d5 c8be fb87 923f 5d74 f93e
00000020: 8580 763e c602 9e3f 2d6d 2fbf e2cf b23f
00000030: 90bb 98be aab6 753d 5271 8c3f 029d bf3f
00000040: 76a8 643e 0807 a83c b58d dc3e eb9f 72bf
00000050: e732 cebf feed 993e 77d6 5b3e 113a 6a3f
00000060: 7b8a 883e a737 f4be 9fbc 273f 4a0a 703e
00000070: 057d b6bf aff1 9e3f 8eb7 49be ca63 80bf
00000080: 64bc 89bf 9ebe a2be aab0 883f 19b4 0a3f
00000090: 06b2 9dbe eadb 3e3f 2a5a a23d 58dd 9e3e
000000a0: ab54 0140 0ec7 25bf f1b5 0d3e 4fbd 09bf
000000b0: 0727 f9bd 93fe 4b3f 9971 ef3e ab27 d23e
000000c0: 1a88 32bf 1abc a53f 5577 8d3f 10d7 58bf
000000d0: e3b8 693f 17bb ab3e 7f19 4c3f f101 53bf
000000e0: 9407 b6bd f0fa 5abe 3664 053e 7c94 89bd
000000f0: f8ce 71bd 81a1 7dbe e06f 5e3c c190 81be

l2.bias f4 [8]
0.110771015 -0.20627655 -0.22836423 0.56633496 0.21973152 0.79482096 0.02819045 -0.29949442
00000000: eadb e23d 293a 53be 50d8 69be 54fb 103f
00000010: 4d01 613e 6379 4b3f a9ef e63c 5557 99be

l3.weight f4 [10, 8]
-0.2650441 -0.1275166 -2.653651 0.5688498 0.4751569 0.12960045 -1.4314021 0.13255882
-1.5301095 0.5839941 -1.6500362 -0.18087974 -1.500562 -1.7965946 0.8973868 -0.35130945
-1.2359985 -1.4765204 0.02227142 0.4192004 0.3200755 0.29995906 0.06311424 -0.23768893
0.28088406 0.12975715 -1.4930313 -0.5519317 -1.7565298 -0.1137893 0.23272091 0.14955589
0.6805347 -2.106498 -2.7592456 -1.336157 0.3583419 -0.055495594 0.9112211 -0.18960227
-1.7448144 0.61239237 -2.1840818 -1.3577149 -1.1742473 1.2501413 -1.4179786 0.3376744
0.41885582 0.43514878 -1.729904 -0.6412113 0.26572052 -1.6327424 -0.49218738 -0.32298654
-0.52580255 -0.7339544 -0.23315111 0.42833784 0.30474213 -0.10722124 0.30397785 -0.23958081
0.41113132 0.88486916 0.41968507 -0.55213326 -1.6761041 -0.52219117 -1.4455034 -0.34668925
-0.6257642 -1.7125324 -0.6522245 0.9731495 -1.5308582 1.0075575 -1.6277306 -0.31293178
00000000: dcb3 87be b693 02be 6bd5 29c0 24a0 113f
00000010: c447 f33e fbb5 043e 2f38 b7bf 80bd 073e
00000020: a1da c3bf a380 153f 6334 d3bf 8a38 39be
00000030: 6a12 c0bf d0f6 e5bf 24bb 653f d5de b3be
00000040: 3335 9ebf 9ffe bcbf 8e72 b63c 6fa1 d63e
00000050: f0e0 a33e 3c94 993e 0a42 813d ba64 73be
00000060: 09d0 8f3e 0fdf 043e a61b bfbf 654b 0dbf
00000070: f8d5 e0bf 5d0a e9bd 644e 6e3e 2e25 193e
00000080: 8637 2e3f ddd0 06c0 7b97 30c0 3107 abbf
00000090: 9778 b73e 594f 63bd c945 693f 1927 42be
000000a0: 1456 dfbf bfc5 1c3f ffc7 0bc0 9ac9 adbf
000000b0: bc4d 96bf a104 a03f 5380 b5bf a9e3 ac3e
000000c0: 4574 d63e d2cb de3e 7f6d ddbf 6c26 24bf
000000d0: 850c 883e b4fd d0bf fcff fbbe 7e5e a5be
000000e0: ff9a 06bf 70e4 3bbf 2abf 6ebe 194f db3e
000000f0: 2907 9c3e cf96 dbbd fca2 9b3e ac54 75be
00000100: ce7f d23e c986 623f f6e0 d63e 9b58 0dbf
00000110: 948a d6bf 52ae 05bf 4106 b9bf 4181 b1be
00000120: 1532 20bf 4334 dbbf 2ff8 26bf 5320 793f
00000130: 29f3 c3bf a5f7 803f 7a59 d0bf 9838 a0be

l3.bias f4 [10]
0.35204622 0.16317242 -0.49716267 -0.16561809 0.16274129 0.305319 -0.21937609 -0.58228666
-0.21457772 0.16552356
00000000: 673f b43e ac16 273e 1b8c febe ca97 29be
00000010: a7a5 263e c652 9c3e 20a4 60be bd10 15bf
00000020: 43ba 5bbe 027f 293e
