data.pth (torch, 13783 bytes, 6 tensors)

l1.weight f4 [8, 218]
00000000: 5e0d 84bf 570b 783e 972c 113e 7c1f 6140
00000010: ca85 21bf f739 3d3e 4974 793e d83a 383c
00000020: 3a29 693d 8fd5 1abf b4cd 883e 66f1 14bf
00000030: 78b5 2fbd 4038 713d 1b5f 0bbf 46f5 debe
00000040: a639 5d3d e44b 003d c06e 1a3c 36c6 5abd
00000050: ce60 00bd 805c 4ebc e047 3a3c d2f6 be3d
00000060: 3071 293f f2cf 833d 7908 26bd b69e 893d
00000070: a00f a4bc 3bfe dc3f a47f 49bd 901e 0d3c
00000080: caea b93f cafa 21bd 120d e73f aa0f eabc
00000090: c997 d03e b5a4 583f d841 853d 884c cd3c
000000a0: 28d1 babb 00e5 5f3d fe0e e3bc e8aa d83c
000000b0: 609d 1a3b ee8e 2b3d 4d4c 4ebd 2ea1 1a3d
000000c0: 0ca0 8abc 507b e2bc a4fa a53c 70e2 683c
000000d0: 928d c9bc ab47 89bd 8a29 32bf 9d6f 033f
000000e0: 84f7 b2bc ded2 ab3e 234d 213e 501c 933e
000000f0: 5506 83bd 04c7 0c3d 50e0 3c3d a6f8 15bd
00000100: bf5f e13f c0da a2bc aa0d af3f a21c b6bd
00000110: e000 a3bc 6076 67bf aa33 8d3f e562 f03f
00000120: 43d1 0dbd c391 67be b2d7 81bc 1811 973c
00000130: 2cc4 d23e d31d 8cbf 6c6a 7cbd b874 3e3c
00000140: 8780 d03f d31e 3bbf f463 873e 14f7 a73f
00000150: 90bb 87bd e790 b53f fdff 5c3f 4424 8a3d
00000160: e823 3cbf d7cc 973d 2535 2bbf e234 fb3d
00000170: c75e 8f3f a84e e9bc f15c 473f f871 04bd
00000180: 375b 083f a685 883d dcfd 023d 99de 903f
00000190: b333 0740 628d 993f 104b 8f3f 68d0 433f
000001a0: 919b 933e cabc 753f cdd0 a23f ea53 51bd
000001b0: 4086 fb3b 7042 583d 48ba 403e 3c04 8abd
000001c0: fa34 a23f 22c1 023f 4361 ad3f c92d 1cbf
000001d0: 0bfd 0640 b3ab 0a3d c5d4 093f 7609 763f
000001e0: f703 023f d026 b23c c547 ca3f 2023 92bf
000001f0: d172 2140 9b4c 52be 07d0 b8bd 74bb d53c
00000200: e0d3 d23c 032d dd3f 802a 0e3b 17cb 70bf
00000210: 7189 bc3e 6657 06bd 64a2 bd3f 64d1 183d
00000220: c05e 433b cd2d 80bf f739 8fbe 512c 443f
00000230: 83ce 84bf 001e d1bc d21b c3bf f644 9abd
00000240: 0ca3 17bd 7f3b c0bf 2087 0abf e9b6 91be
00000250: 96a7 0a3d efcf bd3d 36fe 973e be3e 3f3f
00000260: 577b 133f 9623 edbc b2bb dabc e01d f93c
00000270: 35e1 cd3d 58e7 ae3c e38c b83f f09c 5f3d
00000280: d6ca d9bf 5648 083d 1a23 533d a847 cd3f
00000290: 9063 a63b 3428 6a3d 308d 4dbc b8cd 0a3c
000002a0: acf2 9b3c faa5 1540 f045 733d bfa7 b53e
000002b0: fee5 08bd c403 9b3b 5695 753f 1c9b 4b3d
000002c0: c3cd 3140 be07 873d 9a63 66be b26f 51bd
000002d0: c168 953f 294f 65bd 80fb 953c 6e9b d5be
000002e0: c2e8 ddbc 68dc dcbb f89d 483f f05c 13bd
000002f0: f26b 243f f0e6 a63e 73da 983f 418e eb3d
00000300: 2ec6 0f40 1a9f aabe 8c20 5b3f 50df 09bf
00000310: 2eea 7b3f 6b7f 4b3f 121f 60bd 98b7 c13f
00000320: 146a c13f 16ed 0c3d ec41 cabe 48b1 d63e
00000330: 59ad 2dbf 1847 833d 5f08 113f fe65 843d
00000340: da66 1840 e067 e33e e55f 933f 55b4 57bd
00000350: 179a 0b40 650a 1abd c25f a9be 707c f13e
00000360: 18c0 a73e abfa 573f 65e8 b5bf 7850 a8bf
00000370: 568f 563c 3c34 1dc0 a195 d1bf 17d5 37bd
00000380: 3b04 e6be ea92 a0bc 18d9 61bd 9669 4040
00000390: 6071 603f 1e60 f23f 2287 3a3d 30f2 4b3c
000003a0: 25a8 ee3e 1868 0f40 2e55 323d ccce 4ebd
000003b0: 66ec abbc c646 223d 9093 51bd d0c2 b53b
000003c0: 0428 72bc 9412 5a3d 3f37 6d3f 00fe abb9
000003d0: a8ce 6d3d 082d 653d 848d 103d 633f b73c
000003e0: dace 593d 66a8 093d d179 18bf 1c32 a5bc
000003f0: 121a 423f be95 473d bcf3 a7bd 2e87 71bf
-1.0316579 0.24223076 0.14177166 3.5175467 -0.6309477 0.18479143 0.24360766 0.011244498
0.056924082 -0.60482115 0.2671944 -0.58180845 -0.04289767 0.058891535 -0.54441994 -0.43546504
0.054010056 0.031322375 0.009425819 -0.053411685 -0.03134232 -0.012595296 0.011369675 0.09324421
0.66188335 0.06436147 -0.040535424 0.06719725 -0.020026982 1.7265085 -0.049193993 0.008613244
1.4524777 -0.03954581 1.8050864 -0.028571922 0.40740803 0.84626323 0.06506699 0.025060907
-0.005701203 0.05466175 -0.02771711 0.026448682 0.0023592338 0.041884355 -0.050365735 0.03775137
-0.01692202 -0.02764669 0.020261116 0.014214143 -0.024603639 -0.06703123 -0.69594634 0.51342183
-0.02184654 0.33559316 0.15752082 0.28732538 -0.06397692 0.034369484 0.04611236 -0.036614083
1.7607344 -0.019879699 1.3676045 -0.0889218 -0.019897878 -0.90415 1.1031392 1.878018
-0.034623396 -0.22614197 -0.015849922 0.018440768 0.41165292 -1.0946602 -0.06162493 0.011624508
1.6289223 -0.7309391 0.26443446 1.3122277 -0.066275716 1.4184846 0.8632811 0.06745198
-0.7349229 0.07412117 -0.6687797 0.12265946 1.1200799 -0.028479889 0.7787619 -0.03233525
0.5326418 0.066661164 0.03198038 1.1317931 2.1125305 1.1996272 1.1194782 0.7648988
0.28829625 0.95991194 1.2719971 -0.051105417 0.007675916 0.052797735 0.1882106 -0.06739089
1.2672417 0.5107595 1.3545307 -0.6100736 2.1091945 0.03385515 0.53840286 0.96108186
0.507873 0.021747023 1.5803152 -1.1416969 2.5226328 -0.20537035 -0.09024053 0.026090361
0.025735795 1.7279361 0.0021692812 -0.9405989 0.3682361 -0.032798193 1.4815183 0.037309065
0.0029811114 -1.0013977 -0.2797391 0.7663012 -1.0375522 -0.025527 -1.5242865 -0.075326845
-0.037020728 -1.5018157 -0.54112434 -0.28459862 0.03385123 0.09268176 0.29686135 0.7470511
0.57610077 -0.028947633 -0.026700828 0.030409753 0.100527205 0.021350548 1.4417995 0.054593027
-1.7015026 0.03327211 0.051547147 1.6037493 0.0050777867 0.057167247 -0.012545869 0.008471899
0.019036613 2.3382554 0.05939287 0.35479543 -0.033422463 0.0047306735 0.95930994 0.04970847
2.7781837 0.065932736 -0.22498932 -0.05113191 1.1672593 -0.055983696 0.018308401 -0.41720146
-0.027088527 -0.0067401417 0.7836604 -0.035977304 0.6422721 0.32598066 1.1941665 0.11501742
2.246471 -0.3332451 0.8559654 -0.5385637 0.98404205 0.794913 -0.05471713 1.5134153
1.5110497 0.03440579 -0.3950342 0.4193213 -0.6784263 0.064100444 0.566534 0.06464766
2.3812776 0.44415188 1.151364 -0.052662212 2.18128 -0.03760757 -0.3308087 0.4716525
0.32763743 0.84366864 -1.4211546 -1.3149557 0.013095697 -2.4563131 -1.6373788 -0.044880953
-0.44925103 -0.019601304 -0.055138677 3.0064445 0.87672997 1.8935583 0.04553903 0.012447879
0.4661266 2.2407284 0.043538265 -0.050490186 -0.020986747 0.039618276 -0.051166117 0.005546905
-0.014780048 0.053240374 0.92662424 -0.00032804906 0.05805841 0.05595115 0.03529121 0.022369092
0.053175785 0.033607863 -0.5956088 -0.020165496 0.7582103 0.04872679 -0.082007855 -0.9434689

l1.bias f4 [8]
00000000: 7323 e93e 6835 fd3e e612 9f3f 9f8d 923e
00000010: 7047 073f 7ad4 2e3f d851 473f a48a 553f
0.45534858 0.49454808 1.2427642 0.28623673 0.5284338 0.68292964 0.7785926 0.83414674

l2.weight f4 [8, 8]
00000000: d18d 10bf dc37 60bf bbac e63e c5bd 5fbe
00000010: c769 c43f c62d fd3e 6c70 673f de30 f6bd
00000020: e1e4 a53f 1a2b d6bf 05ca ea3f 9b77 a33f
00000030: ab11 bcbf 50a7 bc3f 389b 2b3f cbd0 a03d
00000040: 2e3d ff3f 69c8 15bd fe57 613f 4afa 0640
00000050: da40 8dbf 26f0 a63e 5df5 0a40 17bf aebf
00000060: 9b39 3fbf 8f69 1540 db3c bcbe 4da5 2dbf
00000070: b9c5 683f 41eb 1040 afdd a1be 170d 6bbf
00000080: 4539 af3f 42db 073f 4aa8 c83f 714c 24bf
00000090: a75b 18bf 7ce9 cf3f dba7 c9bf 7f9c 2f40
000000a0: fd8d e9be e473 983d aa9c 1340 87d6 ebbe
000000b0: 92c9 273f 30f0 98bf f1a4 a63f 0794 d73f
000000c0: dac1 ca3d 8649 fc3f 6054 04c0 bb48 e23f
000000d0: 4199 1a40 a81d 37bf 1397 87bd b9b0 123f
000000e0: 0b5f 913f 4ee2 89bf 1c7d 0fc0 7b6f 203f
000000f0: 1071 4c3f 7b6a d63f 3b5f cb3e e729 8e3f
-0.56466395 -0.87585235 0.45053658 -0.21849735 1.5344781 0.49448985 0.9040592 -0.120210394
1.2960473 -1.6731904 1.8342901 1.2770876 -1.4692892 1.473856 0.6703372 0.07852324
1.9940546 -0.03656808 0.8802489 2.1090264 -1.1035416 0.32605094 2.1712258 -1.3652066
-0.74697274 2.3345678 -0.3676518 -0.67830354 0.909267 2.2643588 -0.31614444 -0.9181685
1.3689352 0.53068936 1.5676358 -0.6417914 -0.5951485 1.6243129 -1.575435 2.7439268
-0.4561614 0.074439794 2.306437 -0.4606211 0.65541947 -1.19483 1.3019086 1.6842049
0.099002555 1.9709938 -2.0676498 1.7678446 2.4156039 -0.71529627 -0.06620612 0.5730091
1.135713 -1.0772188 -2.242011 0.62670106 0.7986002 1.6751245 0.39721093 1.1106538

l2.bias f4 [8]
00000000: 6843 033f bc18 053e 4298 423f 16a6 383f
00000010: 2348 ee3e 1692 823f 13b5 013f dd5d 243e
0.5127473 0.12997717 0.76013577 0.7212843 0.4653941 1.0200832 0.5066692 0.16051431

l3.weight f4 [32, 8]
00000000: 55e1 c8bf c3bf f2be d5f8 dc3e a8b8 bb3d
00000010: 6a6a a3bf b5e1 adba 7c6a 273f f3f1 8ebf
00000020: 208b d7be 4d9b aac0 ef9f aabf f03c 5a3f
00000030: 1d68 c9bf 3d3a 55c0 3d88 883f 56f2 933e
00000040: 6c18 24bf 297d ce3c 495d 4cc0 30dd a83e
00000050: 4a08 523f 46b0 82bf 5701 11c0 723e c83e
00000060: 2acf 9dbf 611f f23e 7c0a 703e 25d5 5dc0
00000070: 1f01 aabe 43e2 43c0 93a7 44bf 427e b03f
00000080: 1530 803f 9866 c3bf f60c 13c0 7374 76c0
00000090: c0af adbf 26b7 54bd 92bc 163f 354b ac3f
000000a0: ea9b adc0 63e6 1ebf 7881 0c3f 4e34 a3c0
000000b0: e742 063f 58e0 0fbe 5d19 603f f11f 9dbf
000000c0: e7d4 bcbf 5f3b 13c0 0122 a2c0 9b3e b83f
000000d0: 79ed eabf 8336 f1bf 1016 933f 5adc 06c0
000000e0: c17e e3bd 3c5c 34bf c86d 55bf c97f 003e
000000f0: 8a2b 73bf 9910 16bf dbc2 5d3f 1669 473d
00000100: 5082 22bd eb80 90bf c7fe 7fbf 7417 24bf
00000110: 6b43 453d 538d df3e 0d2f 563e c6ca edbd
00000120: c75a 09c0 e6ba 50c0 8ee9 8dbd 4293 2ac0
00000130: 5a14 4fbf f9c2 ac3e ec85 903f ab7b fc3e
00000140: 7a38 7ac0 8976 67be a4a9 1e3f 65c4 233f
00000150: 9357 18bf 871d 15c0 b6d1 b7be 71bd a33e
00000160: fc00 d63e c02c 7dbf b857 59bf c93b 4c3f
00000170: b61d b2be 2f49 33be 4ad3 c9be d5b0 a33d
00000180: c9e0 71bf 47f1 cdbf 3ccf a8c0 8779 c53e
00000190: d3b3 733f 7663 283f cc82 9cbf 8d5f 46c0
000001a0: ccfb 25c0 5b74 613f 4929 30c0 15b3 49be
000001b0: 061d 8a3f 0bb8 c5be 8344 94c0 9e25 02c0
000001c0: dae2 abbf bd95 54bf 9500 1ac0 ec1b 5ac0
000001d0: ce42 643f 083a 4b3f e566 88bf db77 373d
000001e0: 279f b9c0 d6ba 1d3f e779 d03d 715e 1dbf
000001f0: b394 813f a50c b7bf 13c8 7bc0 2a89 1a3f
00000200: 5c86 703e b6e0 6ec0 78a6 e13d a60e 993e
00000210: 9385 bdc0 036d 7d3f 9e24 293f 6a25 58c0
00000220: a346 c03f 530a 55bf d770 8cc0 6c8d 32c0
00000230: 934f ce3e 34e7 813f 67da 9bbe 4753 95c0
00000240: 288e 1b3f e72e 2a3d 0a08 9fbe 32c8 21bf
00000250: de97 4d3e 2f59 d43e 1470 eabf d5a1 6fbf
00000260: 6be3 92bf a74a 1dbf ec96 47be 5d99 fd3e
00000270: 9a11 763e f978 083e 91ee eabe 069b 7abf
00000280: c149 2abf 47f2 5a3f ab42 733f ec3c 80c0
00000290: c4ed 1fc0 eef5 103f c215 dfbf b3a8 75c0
000002a0: d820 28c0 87b4 3fc0 90c7 87c0 8c0c 1fbf
000002b0: d812 5b3f d1a2 13be c6ea 423e dfb4 593f
000002c0: 0d6e 54bf ea60 693e 0e97 3e3f 59ad 52c0
000002d0: dcbc 86bf 0f1f fabc 4842 d9bf 33da ae3e
000002e0: 2559 9dbd ac80 a5c0 66db 7bbf cf6f 323f
000002f0: ca5c 903d 6fd8 aabc 1ffa af3e 585b cdbf
00000300: 3d35 a23e d1e8 673f d2da 623f f985 f73e
00000310: 1a4a d0bf 9ce6 babf 99b6 95c0 f166 87be
00000320: 0421 843e 61c3 1abe eee3 08bd 6d5d 3f3d
00000330: a37f 04bf 45c7 91bf 9b65 38be 9c42 0d3f
00000340: ff36 1dc0 a3c9 6e3f 399f dabe f807 7ec0
00000350: d176 253f 5ef4 c33e 72e6 2fc0 80dd a4c0
00000360: bf48 82bf 69a4 463d 2512 5c3c 7e77 51bf
00000370: 62b2 f43e 8dd4 ffbe a880 2dbe 4718 a3bd
00000380: 8011 9fc0 2eab 55bf 8acd aebf a95f bbbe
00000390: 04ff 703f d9f4 67c0 e2dc 863f 380a 4d3f
000003a0: 18b1 bd3e 2910 293f ed25 783f 6d7e 36c0
000003b0: d8f4 86c0 1aff f1bf dcb4 23bf cf8c c93d
000003c0: e1b6 5c3f d3b3 793e 758d d13c 6446 2fbf
000003d0: 8a34 3dbf 92ce 313f fc26 8ebf 5604 c7bf
000003e0: 7d94 9fbc c0e9 d7be 7718 9f3e 39dc 063e
000003f0: 12ec 19c0 4d8d 90bf f929 b43e 0bb5 cf3e
-1.5693766 -0.47411928 0.43158594 0.0916608 -1.276685 -0.0013266118 0.6539686 -1.1167587
-0.4209833 -5.3314576 -1.3330058 0.85249233 -1.5734898 -3.3316796 1.0666577 0.28895825
-0.64099765 0.025206165 -3.1931937 0.32981253 0.820439 -1.0210044 -2.2657068 0.39110142
-1.2328846 0.47289565 0.234415 -3.4661343 -0.3320398 -3.060685 -0.768182 1.3788531
1.0014673 -1.5265684 -2.297666 -3.8508575 -1.356926 -0.051932476 0.58881485 1.3460451
-5.4252825 -0.6207029 0.54885054 -5.100135 0.52445835 -0.14050424 0.875387 -1.2275373
-1.4752473 -2.3004987 -5.066651 1.4394106 -1.8353721 -1.8844761 1.1491108 -2.1071992
-0.11108161 -0.7045324 -0.8337064 0.12548746 -0.9498831 -0.58619076 0.8662545 0.048684202
-0.039675057 -1.1289343 -0.99998134 -0.64098287 0.048159998 0.4366251 0.20916386 -0.116109416
-2.1461656 -3.2614074 -0.06929313 -2.665238 -0.8089043 0.33742502 1.129087 0.493131
-3.909697 -0.22603811 0.619776 0.6397155 -0.5950863 -2.3299272 -0.35902184 0.3198047
0.41797626 -0.9889641 -0.84899473 0.79778725 -0.34788293 -0.17508386 -0.39419013 0.079927124
-0.9448362 -1.6089257 -5.275297 0.3856928 0.95196265 0.65776765 -1.2227416 -3.099582
-2.5934935 0.8806817 -2.7525198 -0.1969722 1.0790107 -0.38616976 -4.6333632 -2.033546
-1.3428605 -0.8304098 -2.4062855 -3.4079542 0.89164436 0.79385424 -1.0656401 0.044792037
-5.800678 0.61613214 0.10179501 -0.6147223 1.0123504 -1.4300734 -3.9340866 0.60365546
0.23488754 -3.7324653 0.110180795 0.29893988 -5.9225554 0.98994464 0.660715 -3.3772836
1.5021557 -0.8321888 -4.3887744 -2.7898817 0.40295085 1.0148683 -0.30440065 -4.6664157
0.6076379 0.041548636 -0.3106082 -0.631961 0.20077464 0.41474292 -1.8315454 -0.9360631
-1.1475652 -0.61442035 -0.19491166 0.4953107 0.24030152 0.13327397 -0.45885137 -0.97892797
-0.6651879 0.85525936 0.950236 -4.0074368 -2.498887 0.5662526 -1.7428515 -3.8384216
-2.6270046 -2.9953935 -4.2431107 -0.6212852 0.8557563 -0.14417578 0.19034871 0.8504161
-0.82980424 0.22790876 0.7444924 -3.2918303 -1.0526385 -0.030532388 -1.6973352 0.34150848
-0.076830186 -5.171957 -0.9838165 0.69701856 0.07048948 -0.020855157 0.34370515 -1.6043501
0.31681243 0.90589625 0.88615143 0.483444 -1.6272614 -1.4601626 -4.6785398 -0.26445726
0.2580644 -0.15113594 -0.033420496 0.046719957 -0.5175726 -1.1388937 -0.1800751 0.5517976
-2.4564817 0.93276423 -0.42699602 -3.9692364 0.64634424 0.38272375 -2.7484403 -5.1520386
-1.017845 0.048496637 0.01343206 -0.81822956 0.47792345 -0.4996685 -0.1694361 -0.07963615
-4.970886 -0.83464324 -1.3656476 -0.3659642 0.9413912 -3.6243193 1.0536158 0.8009372
0.37049174 0.66040283 0.9693287 -2.8514664 -4.217388 -1.8905976 -0.63947845 0.0984131
0.8621655 0.24385004 0.025580147 -0.6846678 -0.73908293 0.69455826 -1.1105647 -1.5548198
-0.019479984 -0.42170525 0.31073353 0.13169946 -2.4050336 -1.1293122 0.35188273 0.40567812

l3.bias f4 [32]
00000000: cbb5 3b3e 5ae0 d7be 851f 57bf 7c60 23bf
00000010: 59da 9dbe 3bab 4bbe fb11 9ebe 1bf3 cdbe
00000020: 8dc8 f0be 7e95 21bf 00a3 233e 1b88 1b3f
00000030: cc6e aabd 6d60 39bf 853f c6be 2926 ecbe
00000040: e45d 413f e410 87bc 842f 233e f3e2 29be
00000050: 2643 a0be 8004 da3d c35c 6bbf dc72 c13e
00000060: 720e 81bf 698b f2be 142c a2bf 7595 453e
00000070: 13f9 e7bf 9844 28be b645 353f 0b84 07bf
0.18331067 -0.42163354 -0.8403247 -0.638191 -0.3083065 -0.19889538 -0.30873093 -0.40224537
-0.47028008 -0.6311873 0.15980148 0.60754555 -0.08321914 -0.7241276 -0.38720337 -0.46122864
0.7553389 -0.016487546 0.15936095 -0.1659048 -0.3130123 0.106453896 -0.9193842 0.37782943
-1.0082533 -0.47371987 -1.2669702 0.19295295 -1.8122886 -0.16432416 0.70809495 -0.52935857
