data.pth (torch, 5655 bytes, 6 tensors)

l1.weight f4 [8, 67]
0	0x3ef8f253	0.4862238
1	0x3efc66ad	0.49297085
2	0xbef6fa6b	-0.4823793
3	0x3e1b7ff1	0.15185525
4	0x3ee4174c	0.44549024
5	0xbe80b550	-0.2513833
6	0xbd87de7d	-0.06634233
7	0xbdfecbd7	-0.12441223
8	0xbe9baf0f	-0.30406997
9	0xbe8af240	-0.27137947
10	0xbf0d3581	-0.55159765
11	0x3f0ba99a	0.54555666
12	0x3e92c088	0.28662515
13	0xbea5f62c	-0.32414377
14	0xbe209c6f	-0.15684675
15	0x3cc8465a	0.024447609
16	0xbd76a254	-0.060213402
17	0xbd3edd58	-0.04659781
18	0x3f24149c	0.6409395
19	0x3f0633cb	0.5242278
20	0x3eb0681e	0.34454435
21	0xbd638ed4	-0.055556133
22	0xbe41a884	-0.1891194
23	0xbdbee70f	-0.09321415
24	0x3f2a2fe8	0.6647935
25	0xbeb33f27	-0.3500912
26	0x3ea2cb31	0.31795648
27	0xbec9a021	-0.3937998
28	0xbebf95fe	-0.37419122
29	0x3de97125	0.11398534
30	0xbdde9139	-0.10867543
31	0xbd79942e	-0.06093233
32	0x3f1a7c62	0.60346043
33	0x3e9e88ed	0.3096384
34	0x3e29e6fd	0.16592021
35	0x3ea89665	0.32927242
36	0xbe02ffdd	-0.12792917
37	0x3bac0c0d	0.00525046
38	0x3e66186c	0.22470254
39	0xbf1e4be5	-0.61834556
40	0x3e99fa05	0.30073562
41	0x3e7f5905	0.24936302
42	0xbddbad1f	-0.107263796
43	0x3f0d82e2	0.55277836
44	0xbf0af3fd	-0.54278547
45	0x3e1d6b02	0.15372851
46	0xbe23a12a	-0.15979448
47	0x3e6ad347	0.22932158
48	0x3f38614a	0.7202345
49	0xbd979a58	-0.074024856
50	0x3f0bfda7	0.5468392
51	0x3c957185	0.018242607
52	0x3e81736a	0.25283366
53	0x3ead4602	0.33842474
54	0xbe53cb5c	-0.20683044
55	0x3eb0d7bb	0.3453959
56	0x3f3aba7c	0.729408
57	0x3ef0915e	0.46985906
58	0x3ecfe4cf	0.40604255
59	0x3db232ab	0.087010704
60	0x3f029f5b	0.5102441
61	0x3e89ad0e	0.26889843
62	0x3f23d37a	0.6399456
63	0x3db015c2	0.085979
64	0x3f0fc0e0	0.5615368
65	0xbeacb1bf	-0.3372936
66	0x3ecf6cd0	0.40512705
67	0x3ebcca50	0.36873102
68	0xbc6fadf1	-0.014628873
69	0xbda53cd3	-0.08068242
70	0x3e96b052	0.29431397
71	0x3ecb04cf	0.39652106
72	0x3edc86eb	0.43071684
73	0x3e5c5a3e	0.215188
74	0xbeff09dc	-0.4981221
75	0xbe99776a	-0.29973918
76	0x3d06fe81	0.032957558
77	0xbee6f3e8	-0.4510796
78	0x3f17927f	0.5920791
79	0x3eb1d066	0.34729308
80	0x3b4cfd27	0.003127882
81	0x3efffb68	0.49996495
82	0xbdf90c3f	-0.12160539
83	0xbe87d43f	-0.26529118
84	0xbdc73572	-0.09726991
85	0x3f0f6fc9	0.56029946
86	0x3ec05244	0.37562764
87	0xbe25ad9f	-0.16179512
88	0x3db57bb6	0.088614866
89	0x3ed4d6fb	0.41570267
90	0xbed40aee	-0.4141459
91	0x3d93e03f	0.07220506
92	0x3f1debe0	0.6168804
93	0x3f0299bd	0.51015836
94	0x3f0a3671	0.5398932
95	0x3f17b904	0.59266686
96	0x3f09ba2c	0.537997
97	0xbc37e8cd	-0.011224938
98	0x3ee0e111	0.43921712
99	0xbea85363	-0.3287612
100	0xbe92d8b2	-0.2868095
101	0xbe90240f	-0.2815251
102	0xbe6134b2	-0.21992758
103	0xbe8e5b0f	-0.27803847
104	0xbe6f2c6c	-0.2335679
105	0x3edadefd	0.42748252
106	0xbbfab507	-0.0076509747
107	0xbe9e380d	-0.30902138
108	0x3e14e51b	0.14540522
109	0x3dd909c9	0.105975695
110	0x3e6c83f4	0.23097211
111	0xbeab78a0	-0.33490467
112	0x3d8ff906	0.07029919
113	0xbeacc681	-0.33745196
114	0x3e8310fb	0.25598893
115	0x3f0ffec5	0.5624812
116	0xbe306dc8	-0.17229378
117	0xbe35356c	-0.1769616
118	0xbe38f2ce	-0.18061373
119	0x3eb06e72	0.34459263
120	0xbe0fb0d9	-0.14032306
121	0xbe82b063	-0.25525197
122	0xbe33a8ac	-0.17544812
123	0x3f45c3da	0.7725197
124	0x3ea0dff5	0.31420866
125	0x3ed356a8	0.4127705
126	0x3d9261ab	0.07147535
127	0x3e8d976f	0.27654597
128	0x3ec06d2a	0.37583286
129	0xbe93d1ec	-0.28871095
130	0xbce52347	-0.027970923
131	0xbe4983a8	-0.19679129
132	0xbe551918	-0.20810354
133	0x3daeba39	0.08531613
134	0xbcbf8f7c	-0.023383848
135	0xbeda27a0	-0.42608356
136	0x3e5b6b40	0.21427631
137	0xbe4e6543	-0.20155816
138	0xbe1f6ed2	-0.15569618
139	0xbeeeb174	-0.4661976
140	0x3edeedb7	0.43540737
141	0x3f0e86a3	0.5567419
142	0x3d1b839a	0.037967302
143	0x3e5f3e4e	0.21801111
144	0x3ec9da86	0.39424533
145	0xbecc50e7	-0.39905474
146	0x3cbb650d	0.022875333
147	0x3e93002a	0.28711063
148	0xbe65c8c0	-0.22439861
149	0xbea5d051	-0.32385495
150	0x3f1d8591	0.6153193
151	0xbe256e99	-0.16155471
152	0xbda3023a	-0.07959409
153	0xbe27c60f	-0.16384147
154	0xbe0c3f1b	-0.13695948
155	0xbe17fcc6	-0.14842519
156	0xbe390059	-0.18066539
157	0x3f0fefcb	0.5622527
158	0x3edf678d	0.4363369
159	0xbecf89ee	-0.4053492
160	0xbdda93b0	-0.106727004
161	0xbecf73c2	-0.40518004
162	0xbecf76b0	-0.4052024
163	0xbeea0792	-0.457089
164	0xbe7c2fc8	-0.24627602
165	0xbeca147b	-0.3946875
166	0x3f2e3ebb	0.6806447
167	0xbec9e926	-0.3943569
168	0x3ed4e00e	0.4157719
169	0xbef8d6ac	-0.48601282
170	0x3e52d7a1	0.20590068
171	0xbd39fe4f	-0.045408543
172	0xbd97ff54	-0.07421747
173	0x3db69a0f	0.08916103
174	0xbe183c8e	-0.1486685
175	0x3da993f1	0.08280171
176	0xbdfa8485	-0.12232307
177	0x3e941ebf	0.28929707
178	0x3eb90262	0.3613463
179	0xbe9f217c	-0.31080234
180	0xbddb615e	-0.10711931
181	0xbd0fe9a2	-0.03513492
182	0xbe9726d3	-0.29521808
183	0x3e3d2c5c	0.18473953
184	0x3f10387f	0.56336206
185	0x3c6c9d31	0.014441774
186	0xbe0f6807	-0.14004527
187	0xbdd160e5	-0.10223559
188	0x3e321ca2	0.17393735
189	0xbc8bf778	-0.017085776
190	0xbedeb858	-0.43500018
191	0xbe7df6b4	-0.24801141
192	0xbe9aa2c9	-0.3020232
193	0x3ee96d9d	0.4559144
194	0xbe2173bc	-0.15766805
195	0x3d238b6d	0.03992789
196	0x3f4487b4	0.76769567
197	0xbe37e53b	-0.17958538
198	0x3f1f9a94	0.6234524
199	0xbdaf10e8	-0.085481465
200	0x3f088456	0.5332693
201	0x3e0a669c	0.13515705
202	0xbe91837c	-0.28420627
203	0x3f0b377c	0.5438154
204	0x3e232106	0.15930566
205	0x3e805e08	0.2507174
206	0x3ea086fd	0.31352988
207	0x3ec7cf55	0.3902537
208	0x3e6c1471	0.23054673
209	0x3ec28e12	0.37999016
210	0x3f018a4d	0.50601655
211	0x3f0567bc	0.5211141
212	0x3ef48a9b	0.47761998
213	0x3e0808b2	0.13284567
214	0x3ef7e39a	0.48415834
215	0x3eb0b972	0.34516484
216	0x3f3c592d	0.7357357
217	0x3e2a651c	0.16640133
218	0x3f2700c2	0.6523553
219	0x3f04849e	0.5176486
220	0x3e62473a	0.22097483
221	0xbe74fe67	-0.23925172
222	0x3f39c348	0.725636
223	0x3ed43cc0	0.414526
224	0x3e2c7ed3	0.16845255
225	0xbe8e379d	-0.27776805
226	0x3f1e09ae	0.6173352
227	0xbe86408b	-0.26221117
228	0x3f1fc6e0	0.62412834
229	0x3f227fe7	0.63476413
230	0x3f4eb39b	0.80742806
231	0x3f379ace	0.7172059
232	0x3ead2e4e	0.3382439
233	0xbed4ba91	-0.4154859
234	0xbe959db7	-0.2922189
235	0xbeda1f6a	-0.42602092
236	0xbeca8b4e	-0.39559406
237	0x3df0882c	0.11744723
238	0x3f5b0a3d	0.855625
239	0x3e0a7ec6	0.13524923
240	0x3f23c011	0.63964945
241	0xbe814436	-0.25247353
242	0x3e068548	0.1313678
243	0x3f10162c	0.5628383
244	0x3e4ef487	0.20210467
245	0x3f1de9f0	0.61685085
246	0x3ea730cc	0.32654417
247	0x3ede66ed	0.434379
248	0x3db0a854	0.08625856
249	0x3ed691fe	0.41908258
250	0x3e838c0c	0.25692785
251	0xbf21aa9d	-0.6315096
252	0x3f15eeaa	0.585673
253	0x3e9db0f0	0.30799055
254	0xbdcc1667	-0.099652104
255	0x3f6225dc	0.8833902

l1.bias f4 [8]
0	0x3f4178a6	0.7557472
1	0x3f4926f7	0.7857508
2	0x3ecf75d3	0.4051958
3	0x3f4e49b1	0.80581194
4	0x3f3db937	0.7411074
5	0x3f4fb170	0.81130123
6	0x3ed20dab	0.41026053
7	0x3efb2b06	0.49056262

l2.weight f4 [8, 8]
0	0x3fbfad23	1.4974712
1	0x3f27ba12	0.65518296
2	0x3f3f0403	0.74615496
3	0xbf0d1f14	-0.55125546
4	0xbf13cb91	-0.5773249
5	0x3f9846e6	1.1896636
6	0x3f23acf4	0.6393578
7	0x3e656400	0.22401428
8	0x3f682aed	0.906905
9	0x3e3cb30b	0.18427674
10	0xbf996340	-1.1983414
11	0x3ee79e2e	0.4523787
12	0x3da2aa9a	0.07942696
13	0xbfb121e3	-1.3838466
14	0x3f2a486d	0.6651676
15	0x3f79d99c	0.9759767
16	0xbe28697d	-0.1644649
17	0xbe619cb5	-0.22032435
18	0xbe6ae0a0	-0.2293725
19	0x3fb7d4dd	1.4361836
20	0x3f835318	1.0259733
21	0xbee8bd86	-0.45457095
22	0x3f8e2e76	1.1107929
23	0x3fc393d8	1.5279493
24	0x3f87ad48	1.0599756
25	0x3f17308d	0.5905846
26	0xbf08c2ab	-0.5342204
27	0xbf0021ee	-0.5005177
28	0xbd84cdcd	-0.06484566
29	0xbf2cec91	-0.6754847
30	0x3dad8f49	0.08474595
31	0x3f43e0e5	0.76515037
32	0xbe4db87a	-0.20089903
33	0x3e76c69e	0.24099204
34	0xbd157ec2	-0.03649784
35	0xbe859d4f	-0.2609658
36	0xbea5a04d	-0.32348862
37	0x3d7093f3	0.058734845
38	0x3bc59fa9	0.006030996
39	0xbdfcdf2c	-0.12347254
40	0x3f28f8aa	0.6600443
41	0x3f8beff2	1.09326
42	0xbf3a8186	-0.7285389
43	0x3f7bc0b4	0.98340917
44	0xbf5a03fe	-0.8516234
45	0x3f20656a	0.62654746
46	0xbd3f6411	-0.04672629
47	0x3ea7aa81	0.32747272
48	0xbf370e33	-0.7150604
49	0x3f8e558c	1.1119857
50	0x3e4ea8a5	0.2018152
51	0x3facae31	1.3490659
52	0x3f9d22dc	1.2276263
53	0xbf57a149	-0.84230477
54	0xbec9588b	-0.39325365
55	0xbf4987d6	-0.78722894
56	0x3f0b3eef	0.54392904
57	0x3faafa9b	1.3357729
58	0xbf546b09	-0.8297582
59	0x3e2351cc	0.15949172
60	0x3ed89b38	0.42305923
61	0x3f337319	0.700975
62	0xbf4d793f	-0.8026313
63	0xbe9d8702	-0.30767065

l2.bias f4 [8]
0	0x3ee0a185	0.4387323
1	0xbe8bb559	-0.27286795
2	0x3f2a083e	0.66418827
3	0xbe42d4d8	-0.19026506
4	0xbdf3999b	-0.11894532
5	0x3ec28165	0.37989345
6	0x3f0d4fe2	0.55200016
7	0x3ef7ca95	0.48396745

l3.weight f4 [8, 8]
0	0xbfabe488	-1.3429117
1	0x3f264c93	0.64960593
2	0x3ebcaf19	0.3685234
3	0xbf8634a5	-1.0484816
4	0x3e95bf39	0.29247454
5	0x3e259045	0.16168316
6	0xbde4657e	-0.111521706
7	0xbf7560a4	-0.95850587
8	0xbebc9ca6	-0.36838263
9	0x3ea6a66a	0.3254884
10	0xbe9364cb	-0.28787836
11	0x3ee388b6	0.4444024
12	0x3e3d2981	0.18472864
13	0x3eef7a9b	0.46773228
14	0xbeb1be29	-0.34715393
15	0xbe503d65	-0.2033592
16	0xbedfe5b1	-0.43729928
17	0x3f1c2fee	0.61010635
18	0x3ea34704	0.31890118
19	0x3efe1867	0.49627993
20	0xbdb69c79	-0.089165635
21	0xbf5b58f6	-0.8568262
22	0xbf4cb69c	-0.7996614
23	0xbf9575b3	-1.1676544
24	0x3e0e44a6	0.13893375
25	0xbf818b28	-1.0120592
26	0x3f382d44	0.7194407
27	0xbfb4c31f	-1.4122046
28	0x3c881fd4	0.01661674
29	0x3e9dcd24	0.30820572
30	0xbf8bf955	-1.0935465
31	0xbf539dbd	-0.82662565
32	0xbf5e6f7d	-0.8688887
33	0xbf3adfc7	-0.7299771
34	0xbee0af7d	-0.43883887
35	0xbf429e25	-0.7602256
36	0x3b344a2d	0.0027510033
37	0x3dedcdb2	0.11611499
38	0x3f431490	0.7620325
39	0x3f8d6990	1.104784
40	0x3f6c4698	0.9229522
41	0xbf1b7681	-0.607277
42	0xbfaf76ba	-1.3708107
43	0xbfb34ff0	-1.400877
44	0x3d8468c6	0.064652964
45	0x3e2ce480	0.16884041
46	0xbf0158f4	-0.50526357
47	0xbfb7488b	-1.4319013
48	0xbfd7a14e	-1.6846101
49	0xbf48034a	-0.7813002
50	0x3ef48646	0.47758693
51	0xbe485695	-0.19564278
52	0xbdb6db58	-0.08928555
53	0xbf8f06f3	-1.1173996
54	0x3f6698c6	0.90076864
55	0xbf36eb0b	-0.714524
56	0x3e3d1744	0.18465906
57	0xbf355477	-0.7083201
58	0xbfac1256	-1.3443096
59	0xbec2d89b	-0.38055882
60	0xbe14bb82	-0.14524654
61	0x3f242091	0.6411219
62	0xbf4f6cb6	-0.81025255
63	0x3f5c91fd	0.8616026

l3.bias f4 [8]
0	0x3d1475d0	0.036245167
1	0xbee23a1f	-0.44184968
2	0xbe642e3a	-0.22283259
3	0x3f0b675c	0.5445459
4	0x3d3ef716	0.04662236
5	0x3f091d39	0.53560215
6	0x3e6956ba	0.2278699
7	0xbea0f472	-0.31436497
