data.pth (torch, 11607 bytes, 6 tensors)

l1.weight f4 [8, 179]
00000000: 3991 35bf f89d f83e 1f1c f0bf c94d bd3e
00000010: 50c0 08c0 5cfb 1a3e 9ccf c43e 34eb aa3c
00000020: c259 923d 80b1 173c ee12 40be eb14 143e
00000030: 2ae5 883d 783c 32bc c3cc 2c3f 76d9 ebbe
00000040: 60ea f03b c8c5 57bd 602a e03b 2ce4 8e3d
00000050: b633 45bd 462b b33e 4508 883f 00cb bc3c
00000060: 386c 39bc 1645 25bf e842 54bd 3853 8ebe
00000070: 3baa d23e 000f ea39 084b 9e3c 6421 fd3c
00000080: f8dc e03c 700c 5c3d 980e 1f3c 2ec4 003d
00000090: c65f 8f3d 4e34 92bd fe1a 163d a01f 493d
000000a0: 088a d63c a84d 353c 1459 06bd 1ae8 b83e
000000b0: 209f a23c 1420 403d d654 e93f 6c74 113f
000000c0: 7038 eb3b 4a48 91be 0c69 4d3f 5859 7f3d
000000d0: 2cad 113d 0e77 8ebd 307b e3bc 575f e43d
000000e0: 08f3 233f 378a 6a3f 4e00 52bf 2c60 2dbf
000000f0: 8e91 0f3d 066d d8bd 98de 4d3c e0c5 463c
00000100: 8ef4 0140 c078 473f e963 363f f588 c2bd
00000110: 4e93 973e d8ac bc3e 076f 103e aaf3 bb3f
00000120: 8f41 3c3f 57d5 7dbf 2017 b7bb eb70 4b3e
00000130: ae44 383f 3027 9a3b aa7f 483f 1a24 3a3d
00000140: b329 41bf c031 4c3d 671f b8bd 9051 683d
00000150: 46da a13f 91d1 2dbd 9e89 a33f 0708 a23f
00000160: 6c1a 66bf 5786 d93e bb62 833e 2c80 553f
00000170: 384c f83c d84f 613d 30ea 44bc d8b2 713f
00000180: d0e8 853d 327e b0bf 4287 803f faf4 0ebf
00000190: 70dc fa3d ad0e b43e 5056 a33f 0b43 0dbe
000001a0: 14c0 b33e 5272 983d 929a 923f 3baa e43e
000001b0: 047c f33e d7b2 0abd e01d f3bb f601 c7bc
000001c0: e334 4d3f c8a6 0c3d 194e 413f 9a41 6a3a
000001d0: f0ef 06bc 9534 b53f 8f01 3fbd a018 6a3c
000001e0: 1d44 2e3f fcca 763d 2f99 7c3f 055f 86bd
000001f0: 3b7c 993e e049 763f c583 5dbe 0440 413d
00000200: 00e0 63b7 80c7 b4ba 4109 d53f 709a f73c
00000210: d72e 7abf 9e83 0f3d 1194 c13d 84ab cd3c
00000220: bb7f 5bbd b4ac 97bd 5763 2dbd 9fd9 e53e
00000230: 259e df3d 36c0 8bbd 7f43 1ebd c782 14be
00000240: 2073 45bb 1206 d3be 1877 83bd 59e7 9b3e
00000250: 27ca 2fbd fa45 77bd 6d4f 893f 989d 8bbd
00000260: 40d1 a03e 7ee5 33bd b6e3 f73f 7d46 f63f
00000270: 0fa1 033f 06fc 0e40 5f78 93be 8014 dd3e
00000280: 7985 80bf 1b28 87bd 8db1 e13f 110c 8f3f
00000290: e8ab 2d3d f0f0 b83e ed68 64bf b04b 4c3c
000002a0: 1e3a 8f3f 4e35 86bd b9ac 8a3d a124 9f3f
000002b0: 14fa 863f c544 a73f 1fec 14bd 5430 c6be
000002c0: d860 883f 8d62 113f 385b fb3f e510 4dbc
000002d0: 1a37 1d3f 6414 d53f 6f76 e73e 453b 02bf
000002e0: f613 a13f 6508 d83e 7cd0 08bf c463 84bd
000002f0: 00ca 093b 8fd1 0640 92bb 4a3f 60e2 093c
00000300: 22f6 303d 9b50 d1bd 3522 42bf ec40 013d
00000310: e451 8a3c 06ac a5bc 8c36 30bd 1449 923d
00000320: 7fdb d73e fb9d 07bf 72c4 8c3d 0098 923d
00000330: 89e0 aa3e ac18 82bd 90be bdbe 5aa5 a43f
00000340: f083 8a3d 967e 3f3d d42f a3bc 9b90 78bd
00000350: 51d9 8ebd 94a9 003d 6844 f33c 1478 f63c
00000360: 2244 863d 7042 2b3c 8c1c 543d 54e5 74bc
00000370: 3e0d 4dbd 40dd 3f3d 183c 48be 4097 6a3b
00000380: 0e9a 963d 3c93 d5bd ee53 99bf b0ec 873d
00000390: c545 5b3e 20ec 4bbe 50cf 1f3c f064 38bd
000003a0: d243 56bd c154 89bd 4626 213f fb1a be3f
000003b0: 7965 ddbe 96f3 b1bf 100b 37bf 92e2 8f3d
000003c0: a166 72bf 08b8 903d f25e 963d 4faa 5b3f
000003d0: 86e3 0abf 8e0a 773f d9c2 d0bf ffcf d13e
000003e0: 7541 45bf cac2 3c3f 3dac 233e 7ef9 63bf
000003f0: 0d0f c33f 4a1e 39bd 70ec 2140 7f89 e5bd
-0.7092472 0.4855802 -1.8758582 0.36973408 -2.1367378 0.15134948 0.38439643 0.020864107
0.07146026 0.009258628 -0.18757221 0.14461105 0.066843346 -0.010878675 0.6749994 -0.46064347
0.0073521584 -0.052678853 0.006840989 0.06977114 -0.04814502 0.34993953 1.0627524 0.023046017
-0.011317305 -0.6455854 -0.05182162 -0.27797866 0.411455 0.00044643134 0.019322887 0.030899711
0.027449116 0.0537228 0.009708069 0.03143709 0.07000689 -0.071388826 0.036646836 0.049102426
0.026188865 0.011065878 -0.032799795 0.3611458 0.019851267 0.046905592 1.8229015 0.5681827
0.0071783587 -0.28375465 0.80238414 0.062341064 0.03556554 -0.06956302 -0.027768701 0.11150997
0.6404271 0.9161715 -0.82031715 -0.6772487 0.03505092 -0.105676696 0.0125652775 0.012132138
2.0305514 0.77918625 0.712462 -0.09498779 0.29604572 0.3685062 0.14104854 1.4683735
0.73537534 -0.99153656 -0.0055874735 0.19867294 0.71979797 0.0047043785 0.783198 0.045444585
-0.7545425 0.049852133 -0.089903645 0.05671841 1.2644737 -0.042436186 1.2776372 1.26587
-0.89884067 0.42485306 0.25661263 0.833987 0.030309781 0.055007786 -0.012018725 0.9441352
0.06538546 -1.3788512 1.0041277 -0.55842555 0.12249076 0.35167447 1.2760715 -0.13795106
0.3510748 0.0744368 1.1453421 0.44661126 0.47555554 -0.03386196 -0.007419333 -0.024292927
0.80158824 0.034338742 0.7550979 0.0008936167 -0.0082359165 1.4156672 -0.046632346 0.014288098
0.6807268 0.060252175 0.9867124 -0.06561092 0.29977593 0.96206474 -0.21632297 0.04718019
-1.3582408e-05 -0.0013792366 1.6643449 0.030225009 -0.9772772 0.03503763 0.094520696 0.0251062
-0.05358861 -0.074059874 -0.042331066 0.44892594 0.109188356 -0.06823771 -0.038638588 -0.14503013
-0.0030128434 -0.4121557 -0.064192 0.30449942 -0.042917397 -0.06036947 1.0727364 -0.06817168
0.31409645 -0.043920033 1.9366367 1.9240261 0.5141763 2.2341323 -0.28802773 0.43179703
-1.0040733 -0.065994464 1.7632309 1.1175557 0.04240027 0.3612132 -0.89222604 0.012469217
1.1189611 -0.06553136 0.067712255 1.2433053 1.0545068 1.3067862 -0.036357995 -0.38708746
1.0654554 0.56791 1.9637213 -0.012516235 0.61412203 1.6646848 0.45207545 -0.5087169
1.2584217 0.42193905 -0.5344312 -0.06464341 0.0021024942 2.1065404 0.7919246 0.008415788
0.04320348 -0.102204524 -0.75833446 0.031556055 0.016884752 -0.020223629 -0.04302077 0.07142845
0.4215965 -0.52975434 0.068734065 0.07157898 0.33374432 -0.06352362 -0.3705945 1.2862961
0.06763446 0.04675158 -0.019920267 -0.06068478 -0.069750436 0.031411722 0.029695705 0.030086555
0.06555964 0.010452852 0.051785037 -0.014947254 -0.050061457 0.04684186 -0.19554174 0.0035795718
0.07353602 -0.10428473 -1.1978738 0.066369414 0.21413334 -0.19914293 0.009754017 -0.045018137
-0.052310772 -0.06705619 0.62949026 1.4851984 -0.4324148 -1.3902462 -0.71501255 0.07025637
-0.9468785 0.07066351 0.07342328 0.85806745 -0.54253423 0.9650048 -1.6309463 0.40979
-0.77053005 0.73734725 0.15983672 -0.8905257 1.5238968 -0.0451949 2.530056 -0.11207866

l1.bias f4 [8]
00000000: 7f1f a03c 5bcf ad3e 9229 0a3f 1b72 373f
00000010: e4ec 243f 1607 8f3f ce30 463f 9145 3b3f
0.019546269 0.33947262 0.5396968 0.71658486 0.64423966 1.1174037 0.7741822 0.73153025

l2.weight f4 [8, 8]
00000000: a16e ee3f 477f 0040 0907 953e 0640 45bd
00000010: 514f 00bf 8a81 413f 8bf0 843f c6c1 f0bf
00000020: cd30 f8be c8c5 ac3c 49e1 abbf 1c46 de3c
00000030: 041e d13f 99a7 d03f 26ff a73f 507b d5bf
00000040: b1a4 dbbf f742 cc3f a488 213f 2f78 823f
00000050: 2b08 d13f 1a49 743f 6077 61bf e49a b13e
00000060: f474 b53f d304 3e3f bdd9 35bf 5578 eabf
00000070: 446d 85bf 2132 d93f 7522 a63f a68c 0240
00000080: 50e4 bdbe d93b 84bf fc68 2840 ae2b 0840
00000090: 1fc4 0abe 2cf7 473f bf7c a03f 3a28 e33e
000000a0: 5d67 d73f 5a65 0b3f 194b 6b3f 5bdb 9dbd
000000b0: 896a d93f 4924 cbbf ec63 a2bf 6277 ef3f
000000c0: f1b0 8cbe b568 37bf 7a06 973f 1159 f33f
000000d0: 7cfc 17bf 0029 703f 9749 ed3f 151c 573e
000000e0: b57c e03e 147d edbd 2260 39be 3845 81bc
000000f0: d713 4f3f e822 a1be fb85 5abd 5e02 943f
1.8627511 2.0077684 0.2910693 -0.04815676 -0.5012103 0.75588286 1.0385908 -1.8809135
-0.48474732 0.021090403 -1.3428127 0.02713304 1.6337285 1.6301147 1.312474 -1.6678257
-1.7159635 1.5957936 0.6309912 1.0192927 1.6330618 0.95424044 -0.88072777 0.34688485
1.4176316 0.7422611 -0.7103537 -1.8317972 -1.042397 1.6968423 1.2979265 2.0398345
-0.3708825 -1.0330764 2.6314077 2.127666 -0.13551377 0.7811153 1.253807 0.44366628
1.6828419 0.54451525 0.91911465 -0.07707854 1.6985637 -1.5870448 -1.2686744 1.8708308
-0.27478746 -0.71644145 1.1798851 1.9011556 -0.59369636 0.9381256 1.8538083 0.21006806
0.43845144 -0.115961224 -0.18103078 -0.015780076 0.8088965 -0.31471944 -0.05335043 1.1563222

l2.bias f4 [8]
00000000: 9d1d 8dbe 2a5f 853f 13c2 e13c e39f 433f
00000010: 07ff 5e3f dbdb c43e 9e5a bf3d 2b11 a3be
-0.27561656 1.0419667 0.027558362 0.7641584 0.8710789 0.38448986 0.09343456 -0.31849036

l3.weight f4 [26, 8]
00000000: 3bb1 a7be a675 3d3f 594f 5f3f c7d8 70c0
00000010: 81b1 05c0 4a28 1b3f 3724 33c0 1093 413f
00000020: 3871 e8bf ba0a 4b3e 22fc 953f cc11 81c0
00000030: cbcb 8c3c 13c8 45bd 9e5d 0cbe 6338 3abf
00000040: cf22 55bf 1612 81bd 5905 853d d126 2e3f
00000050: eedf 17c0 6f51 e83e 95af 31c0 ffe1 a03f
00000060: 37c6 033f 8f93 8dc0 3c08 293f 8fea a3bf
00000070: f17f b83d fa76 033e 91cc 2ebb 614d 05c0
00000080: ed3a 363e 4bf0 823f c0eb aa3e a7c5 c8be
00000090: d687 39c0 f41b 823e 2654 36c0 07ce 8cbf
000000a0: 6199 123f a443 03bf e38f 99bf 3624 123f
000000b0: dade 97be 5e6b 17bd a206 dabd 4c5e 0cbe
000000c0: cc29 00be 83c6 0abf 680c 31bf 2ba8 10be
000000d0: 3fbc 0f3f 1d61 1f3e 6fe0 bebd f99f 0abe
000000e0: da56 373f 20d9 3bc0 79be 6c3d 1358 bd3d
000000f0: 400e e8bf fe86 5f3f 3175 2bc0 d611 213e
00000100: ac4f 7b3c 9ad2 f8bf afa2 bebe d36d 4ec0
00000110: d3fa 0d3f 955f a83f abe1 f6be 1951 333e
00000120: 7ca9 17bf 6d5e 2abe 0281 bd3e 94a4 6dbd
00000130: 7c51 4cbe a12b b43c e1da 86be 28fd 983e
00000140: 1d14 7fbf 4ea9 00c0 60c4 0ec0 5430 8c3f
00000150: 0f3c 1fc0 0f7c 833f 9939 2bc0 b5a1 983f
00000160: 830f 37be 73a0 28be 35ea 7fbe 195e 24c0
00000170: 2ce3 563f 8e2e c7bf fe58 023f 2b80 89c0
00000180: 06f0 2ebd 9df4 a13e 3b53 c5bf 26ff 4e3e
00000190: 3f72 163f 8694 53c0 29a0 8c3e c477 30c0
000001a0: db54 2dc0 a4eb 353d 6ff7 5ec0 0bc4 7c3f
000001b0: 5f9e 803d 9140 17c0 167f 1cbd d060 d43f
000001c0: 44f7 00c0 7217 463f 3b3b 01be 1a1e fdbe
000001d0: 464a e43e 9d59 65bf b6b1 b93e b2b7 37bf
000001e0: b786 ddbf 207e 90bf 7c0f 9ebf 284a c03e
000001f0: 4865 da3e 7358 0c3f cfb4 5dbd 1e08 d93d
00000200: e427 13c0 c7a4 46c0 919b d5be ce15 0abf
00000210: 8d69 683f 1ea1 dcbf 4a57 853f 7c66 b9bf
00000220: 0724 1c3f 9166 943f f966 e4bf 5497 c23e
00000230: 5d44 cdbf 81ba c63e 7c70 6ec0 b406 a2be
00000240: 932e 97be 7b98 74be 56d8 5a3f f1cf 2e3f
00000250: ff33 63bf 286b 6bbf 1e7e 87bf 7439 dbbf
00000260: d27e f23e 9085 50c0 615a 2cc0 57f7 7bbf
00000270: de79 243f 6441 00bd 23c1 2e3f e817 03c0
00000280: 1b4e 493e d1c8 853f ae1d 5abf 0230 a4bd
00000290: 9d5d 13be 7f66 35bf b097 1e3e f36d 08be
000002a0: 10f0 3dbf 2efc dbbd 9f3e 92bf 1fcd 8b3e
000002b0: 026b d6bd aadb 4a3f be5c 18bf 6e7b 053f
000002c0: 2300 5b3f 3ad1 043f ac56 ec3e 1a22 18c0
000002d0: 97ef bcbc 58a3 833d 5fea 57bf e083 1fc0
000002e0: f109 813f 1c70 d2bf 7c96 53c0 44c6 723f
000002f0: 656f 0fc0 5e2f 283e 2567 3ebf 180b a5bf
00000300: e57c 3cbf 5d12 0f3e 141a 013f a4ff ba3c
00000310: b4d8 0a3f ee87 d9bf bd6d 29be be72 3cbf
00000320: 2fef 713f b969 3f3e dae3 05bf 69ee 833e
00000330: 8dbe f8be 3588 8cbf 1b9a 08bf 2c53 f3bf
-0.32752404 0.7400764 0.8723045 -3.763231 -2.088959 0.6060835 -2.7990854 0.75615025
-1.8159552 0.1982831 1.171757 -4.0334225 0.01718702 -0.04828651 -0.13707587 -0.7274229
-0.8325624 -0.06302278 0.064951606 0.6802798 -2.3730426 0.4537463 -2.7763417 1.2568969
0.51474327 -4.4242625 0.6602819 -1.2805957 0.09008778 0.12838355 -0.0026672224 -2.0828478
0.17795916 1.0229582 0.33382988 -0.39213297 -2.8989158 0.25411952 -2.848886 -1.1000375
0.5726529 -0.51275086 -1.1997036 0.57086504 -0.2966221 -0.036967628 -0.10645796 -0.13707846
-0.12515944 -0.54209155 -0.69159555 -0.14126651 0.56146616 0.1556439 -0.09320151 -0.13537587
0.716169 -2.9351273 0.057798836 0.092453144 -1.8129349 0.87315357 -2.6790278 0.1572946
0.0153388195 -1.943927 -0.37233493 -3.2254531 0.5546085 1.3154169 -0.48219046 0.17511405
-0.5924299 -0.16637583 0.37012488 -0.058018282 -0.19952959 0.02199346 -0.26338866 0.29880643
-0.99640065 -2.0103335 -2.2307358 1.0952249 -2.4880407 1.0272235 -2.6753905 1.1924349
-0.17877011 -0.16467457 -0.24991687 -2.5682433 0.83940387 -1.5561082 0.5091704 -4.2968955
-0.042709373 0.31631938 -1.5416025 0.20214519 0.58768076 -3.3059402 0.27465943 -2.75731
-2.7083042 0.044414178 -3.4838521 0.9873664 0.06280207 -2.3633158 -0.038207136 1.6592045
-2.015092 0.77379525 -0.12620251 -0.49437028 0.44587916 -0.89589864 0.36268395 -0.7176467
-1.7306737 -1.128849 -1.2348475 0.37556577 0.42655396 0.5482246 -0.05412751 0.10597251
-2.2993097 -3.1038072 -0.4172025 -0.5393952 0.9078606 -1.7236669 1.0417264 -1.4484401
0.60992473 1.1593801 -1.7843925 0.3800608 -1.6036488 0.38814166 -3.7256155 -0.3164574
-0.2952772 -0.23886292 0.8548635 0.68286043 -0.88751215 -0.9196038 -1.0585363 -1.7126908
0.4736238 -3.258152 -2.6930163 -0.98424286 0.64248455 -0.03131236 0.68263453 -2.0483341
0.19658701 1.0451909 -0.8520154 -0.08016969 -0.1439118 -0.7085952 0.15487552 -0.13323192
-0.7419443 -0.10741459 -1.142536 0.27304932 -0.10469629 0.7924143 -0.59516513 0.52141464
0.85547084 0.51881754 0.46159875 -2.3770814 -0.023063464 0.0642764 -0.84341997 -2.492424
1.0081159 -1.6440463 -3.3060598 0.9483378 -2.241174 0.16424319 -0.74376136 -1.289401
-0.73628074 0.13971849 0.5043042 0.022826977 0.5423691 -1.6994607 -0.16545768 -0.7361258
0.9450559 0.18692674 -0.523008 0.2576783 -0.4858288 -1.0979067 -0.53360146 -1.9009757

l3.bias f4 [26]
00000000: 006e aa3e c0c5 01bf a5c4 42bf dcf7 68be
00000010: 19ab 0b3f 4820 f5be 5438 7ebe cb47 783e
00000020: 3396 4f3f 776a d4bd 3631 873e 509f 6bbf
00000030: 3a1f 78be 0ba1 9dbe 8659 213f 4c97 4f3e
00000040: 77f6 1dbf 2099 6a3e dbde b2be bb67 413c
00000050: 0353 c7be 452b d13e 100d ccbd 0703 07bf
00000060: d096 103f 4b3d 69bc
0.33287048 -0.5069237 -0.76081306 -0.22750801 0.5455795 -0.4787619 -0.24826175 0.24246137
0.8108856 -0.10371869 0.26404732 -0.92039967 -0.24230662 -0.3078693 0.63027227 0.20272559
-0.617042 0.22909975 -0.3493565 0.011804516 -0.3893052 0.40853325 -0.09963429 -0.52738994
0.5648012 -0.014235805
